…
attn_drop: 0.0.
num_enc_layers: 1.
num_dec_layers: 1.
decoder_type: mlp.
num_etypes: 6.
edge_feats: 1.
etype_feats: 5.
residual: False.
hidden_dim: 10.
proj_feats: 10.
mask: False.
mask_feat_type: mean.
loss_type: mse.
use_edge_feats: True.
use_etype_feats: False.
embedding: True.
recon_ntypes: ['api', 'pod'].
window: 300.
score_type: pred_and_mean.
causal_threshold: 0.3.
ad_threshold: 1.0.
dist_type_for_counterfactual: euclidean.
dist_direction: gt.
threshold_1: 0.
threshold_2: 8.
weight_score: False.
CustomGAE(
  (encoder): GATEncoder(
    (gat_layers): ModuleList(
      (0): myDotGATConv(
        (fc_k): Linear(in_features=10, out_features=60, bias=True)
        (fc_q): Linear(in_features=10, out_features=60, bias=True)
        (fc_v): Linear(in_features=10, out_features=60, bias=True)
        (fc_e): Linear(in_features=1, out_features=60, bias=True)
        (feat_drop): Dropout(p=0.0, inplace=False)
        (attn_drop): Dropout(p=0.0, inplace=False)
        (activation): LeakyReLU(negative_slope=0.01)
      )
    )
    (linear): Linear(in_features=60, out_features=10, bias=True)
  )
  (attr_decoder): MLP(
    (linears): ModuleList(
      (0): Linear(in_features=10, out_features=30, bias=True)
      (1): Linear(in_features=30, out_features=20, bias=True)
      (2): Linear(in_features=20, out_features=10, bias=True)
    )
  )
  (struct_decoder): InnerProductDecoder()
  (in_projs): ModuleDict(
    (api): Linear(in_features=13, out_features=10, bias=True)
    (pod): Linear(in_features=14, out_features=10, bias=True)
  )
  (out_projs): ModuleDict(
    (api): Linear(in_features=10, out_features=13, bias=True)
    (pod): Linear(in_features=10, out_features=14, bias=True)
  )
  (emb_layer_dict): ModuleDict(
    (api): Embedding(36, 10)
    (pod): Embedding(40, 10)
  )
)
